…
lambda_adversary: 0.5
lambda_align: 0.5
lambda_kld: 0.001
lambda_recognition: 0.5
lambda_trajec: 0.8
lie_enforce: False
motion_length: 60
name: vanilla_vae_lie_mse_kld_final
no_trajectory: False
optim_seperate: False
plot_every: 50
posterior_hidden_layers: 1
print_every: 20
prior_hidden_layers: 1
save_every: 1000
save_latest: 50
skip_prob: 0
tf_ratio: 0.6
time_counter: True
use_geo_loss: False
use_hdl: False
use_lie: True
use_vel_H: False
use_vel_S: False
veloc_hidden_layers: 1
-------------- End ----------------
Total number of frames 983956, videos 14116, action types 142
GaussianGRU(
  (embed): Linear(in_features=215, out_features=128, bias=True)
  (gru): ModuleList(
    (0): GRUCell(128, 128)
  )
  (mu_net): Linear(in_features=128, out_features=30, bias=True)
  (logvar_net): Linear(in_features=128, out_features=30, bias=True)
)
Total parameters of prior net: 134460
GaussianGRU(
  (embed): Linear(in_features=215, out_features=128, bias=True)
  (gru): ModuleList(
    (0): GRUCell(128, 128)
  )
  (mu_net): Linear(in_features=128, out_features=30, bias=True)
  (logvar_net): Linear(in_features=128, out_features=30, bias=True)
)
Total parameters of posterior net: 134460
DecoderGRULie(
  (embed): Linear(in_features=245, out_features=128, bias=True)
  (gru): ModuleList(
    (0): GRUCell(128, 128)
    (1): GRUCell(128, 128)
  )
  (output): Linear(in_features=128, out_features=72, bias=True)
  (output_lie): Linear(in_features=69, out_features=69, bias=True)
)
Total parameters of decoder: 243750
MotionDiscriminator(
  (recurrent): GRU(72, 128, num_layers=2)
  (linear1): Linear(in_features=128, out_features=30, bias=True)
  (linear2): Linear(in_features=30, out_features=142, bias=True)
)
Total parameters of motion discriminator: 184912
Time: 2023-01-03 13:21:49.233251
0m 56s (- 703m 37s) niter: 20 completed:   0%) g_loss: 0.129  g_recon_loss: 0.046  g_kld_loss: 0.126  g_recog_loss: 0.083  d_loss: 0.002  d_recog_loss: 0.002 
1m 52s (- 698m 36s) niter: 40 completed:   0%) g_loss: 0.112  g_recon_loss: 0.029  g_kld_loss: 0.076  g_recog_loss: 0.083  d_loss: 0.002  d_recog_loss: 0.002 
…
